…
//localhost:8080/"},"id":"rMxjiKyvnBKi","executionInfo":{"status":"ok","timestamp":1660267105926,"user_tz":-60,"elapsed":484,"user":{"displayName":"Ihssene Ghazouani","userId":"15835322391082528162"}},"outputId":"3df39494-4b98-466e-a625-1e60e86caf5d"},"execution_count":null,"outputs":[{"output_type":"stream","name":"stdout","text":["Model: \"sequential\"\n","_________________________________________________________________\n"," Layer (type)                Output Shape              Param #   \n","=================================================================\n"," conv2d (Conv2D)             (None, 112, 112, 16)      448       \n","                                                                 \n"," conv2d_1 (Conv2D)           (None, 56, 56, 16)        2320      \n","                                                                 \n"," max_pooling2d (MaxPooling2D  (None, 28, 28, 16)       0         \n"," )                                                               \n","                                                                 \n"," conv2d_2 (Conv2D)           (None, 14, 14, 32)        4640      \n","                                                                 \n"," conv2d_3 (Conv2D)           (None, 7, 7, 32)          9248      \n","                                                                 \n"," max_pooling2d_1 (MaxPooling  (None, 4, 4, 32)         0         \n"," 2D)                                                             \n","                                                                 \n"," conv2d_4 (Conv2D)           (None, 2, 2, 64)          18496     \n","                                                                 \n"," conv2d_5 (Conv2D)           (None, 1, 1, 64)          36928     \n","                                                                 \n"," max_pooling2d_2 (MaxPooling  (None, 1, 1, 64)         0         \n"," 2D)                                                             \n","                                                                 \n"," flatten (Flatten)           (None, 64)                0         \n","                                                                 \n"," dense (Dense)               (None, 256)               16640     \n","                                                                 \n"," dense_1 (Dense)             (None, 128)               32896     \n","                                                                 \n"," dense_2 (Dense)             (None, 1)                 129       \n","                                                                 \n","=================================================================\n","Total params: 121,745\n","Trainable params: 121,745\n","Non-trainable params: 0\n","_________________________________________________________________\n"]}]},{"cell_type":"code","source":["# Set parameters for model training\n","EPOCHS = 50\n","opti
…
